…
2D(64, 3, padding=&quot;same&quot;, activation=&quot;relu&quot;)) model.add(MaxPool2D()) model.add(Conv2D(128, 3, padding=&quot;same&quot;, activation=&quot;relu&quot;)) model.add(MaxPool2D()) model.add(Flatten()) model.add(Dense(256,activation=&quot;relu&quot;)) model.add(Dropout(0.5)) model.add(BatchNormalization()) model.add(Dense(1, activation=&quot;sigmoid&quot;)) model.summary() . Model: &#34;sequential&#34; _________________________________________________________________ Layer (type) Output Shape Param # ================================================================= conv2d (Conv2D) (None, 120, 120, 64) 640 max_pooling2d (MaxPooling2D (None, 60, 60, 64) 0 ) conv2d_1 (Conv2D) (None, 60, 60, 64) 36928 max_pooling2d_1 (MaxPooling (None, 30, 30, 64) 0 2D) conv2d_2 (Conv2D) (None, 30, 30, 128) 73856 max_pooling2d_2 (MaxPooling (None, 15, 15, 128) 0 2D) flatten (Flatten) (None, 28800) 0 dense (Dense) (None, 256) 7373056 dropout (Dropout) (None, 256) 0 batch_normalization (BatchN (None, 256) 1024 ormalization) dense_1 (Dense) (None, 1) 257 ================================================================= Total params: 7,485,761 Trainable params: 7,485,249 Non-trainable params: 512 _________________________________________________________________ . start = time.time() opt = Adam(lr=1e-5) model.compile(loss=&quot;binary_crossentropy&quot;, optimizer=opt, metrics=[&quot;accuracy&quot;]) history = model.fit(x, y, epochs = 15, batch_siz
…
„°, 64ê°œì˜ í•„í„°ê°œìˆ˜ | Maxpooling (2,2) | Fully Conneted Layer | . model = models.Sequential() model.add(layers.Conv2D(filters=32, kernel_size=(3,3), activation=&#39;relu&#39;, input_shape=(28,28,1) )) model.add(layers.MaxPooling2D((2, 2))) model.add(layers.Conv2D(filters=64, kernel_size=(3,3), activation=&#39;relu&#39; )) model.add(layers.MaxPooling2D((2, 2))) model.summary() . Model: &#34;sequential_4&#34; _________________________________________________________________ Layer (type) Output Shape Param # ================================================================= conv2d_1 (Conv2D) (None, 26, 26, 32) 320 max_pooling2d_1 (MaxPooling (None, 13, 13, 32) 0 2D) conv2d_2 (Conv2D) (None, 11, 11, 64) 18496 max_pooling2d_2 (MaxPooling (None, 5, 5, 64) 0 2D) ================================================================= Total params: 18,816 Trainable params: 18,816 Non-trainable params: 0 _________________________________________________________________ . model.add( layers.Flatten() ) model.add( layers.Dense(64, activation=&#39;relu&#39;)) model.add( layers.Dense(10, activation=&#39;softmax&#39;)) . model.summary() . Model: &#34;sequential_4&#34; _________________________________________________________________ Layer (type) Output Shape Param # ================================================================= conv2d_1 (Conv2D) (None, 26, 26, 32) 320 max_pooling2d_1 (MaxPooling (None, 13, 13, 32) 0 2D) conv2d_2 (Conv2D) (None, 11, 11, 64) 18496 max_pooling2d_2 (MaxPooling (None, 5, 5, 64) 0 2D) flatten (Flatten) (None, 1600) 0 dense (Dense) (None, 64) 102464 dense_1 (Dense) (None, 10) 650 ================================================================= Total params: 121,930 Trainable params: 121,930 Non-trainable params: 0 _________________________________________________________________ . from tensorflow.keras.datasets import mnist from tensorflow.keras.utils import to_categorical (train_images, train_labels), (test_images, test_labels) = mnist.load_data() . Downloading data fro
…
filters=32, kernel_size=(3,3), activation=&#39;relu&#39;, input_shape=(28,28,1) )) model.add(layers.MaxPooling2D((2, 2))) model.add(layers.Conv2D(filters=64, kernel_size=(3,3), activation=&#39;relu&#39; )) model.add(layers.MaxPooling2D((2, 2))) model.add(layers.Conv2D(filters=64, kernel_size=(3,3), activation=&#39;relu&#39; )) model.add(layers.MaxPooling2D((2, 2))) model.summary() . Model: &#34;sequential_5&#34; _________________________________________________________________ Layer (type) Output Shape Param # ================================================================= conv2d_3 (Conv2D) (None, 26, 26, 32) 320 max_pooling2d_3 (MaxPooling (None, 13, 13, 32) 0 2D) conv2d_4 (Conv2D) (None, 11, 11, 64) 18496 max_pooling2d_4 (MaxPooling (None, 5, 5, 64) 0 2D) conv2d_5 (Conv2D) (None, 3, 3, 64) 36928 max_pooling2d_5 (MaxPooling (None, 1, 1, 64) 0 2D) ================================================================= Total params: 55,744 Trainable params: 55,744 Non-trainable params: 0 _________________________________________________________________ . model.add( layers.Flatten() ) model.add( layers.Dense(64, activation=&#39;relu&#39;)) model.add( layers.Dense(10, activation=&#39;softmax&#39;)) . model.summary() . Model: &#34;sequential_5&#34; _________________________________________________________________ Layer (type) Output Shape Param # ================================================================= conv2d_3 (Conv2D) (None, 26, 26, 32) 320 max_pooling2d_3 (MaxPooling (None, 13, 13, 32) 0 2D) conv2d_4 (Conv2D) (None, 11, 11, 64) 18496 max_pooling2d_4 (MaxPooling (None, 5, 5, 64) 0 2D) conv2d_5 (Conv2D) (None, 3, 3, 64) 36928 max_pooling2d_5 (MaxPooling (None, 1, 1, 64) 0 2D) flatten_1 (Flatten) (None, 64) 0 dense_2 (Dense) (None, 64) 4160 dense_3 (Dense) (None, 10) 650 ================================================================= Total params: 60,554 Trainable params: 60,554 Non-trainable params: 0 _________________________________________________________________ . from tensorflow.keras.datasets import mnist from tensorflow.keras.utils import to_categorical (train_images, train_labels), (test_images, test_labels) = mnist.load_data() . train_images = train_i
…
